…
2025-09-14 12:26:12,333 - tensorflow - INFO - recall metric will be calculated manually during evaluation
2025-09-14 12:26:12,333 - tensorflow - INFO - f1_score metric will be calculated manually during evaluation
2025-09-14 12:26:12,343 - __main__ - INFO - Model built successfully in 0.36 seconds
2025-09-14 12:26:12,362 - __main__ - INFO - Model: "GRU_Model"
┏━━━━━━━━━━━━━━━━━━━━━━━━━━━━━━━┳━━━━━━━━━━━━━━━━━━━━━━━┳━━━━━━━━━━━━━━┓
┃ Layer (type)                  ┃ Output Shape          ┃      Param # ┃
┡━━━━━━━━━━━━━━━━━━━━━━━━━━━━━━━╇━━━━━━━━━━━━━━━━━━━━━━━╇━━━━━━━━━━━━━━┩
│ bidirectional_gru_1           │ (None, 128, 64)       │        9,216 │
│ (Bidirectional)               │                       │              │
├───────────────────────────────┼───────────────────────┼──────────────┤
│ dropout_1 (Dropout)           │ (None, 128, 64)       │            0 │
├───────────────────────────────┼───────────────────────┼──────────────┤
│ bidirectional_gru_2           │ (None, 128, 64)       │       18,816 │
│ (Bidirectional)               │                       │              │
├───────────────────────────────┼───────────────────────┼──────────────┤
│ dropout_2 (Dropout)           │ (None, 128, 64)       │            0 │
├───────────────────────────────┼───────────────────────┼──────────────┤
│ bidirectional_gru_3           │ (None, 128, 64)       │       18,816 │
│ (Bidirectional)               │                       │              │
├───────────────────────────────┼───────────────────────┼──────────────┤
│ dropout_3 (Dropout)           │ (None, 128, 64)       │            0 │
├───────────────────────────────┼───────────────────────┼──────────────┤
│ bidirectional_gru_4           │ (None, 64)            │       18,816 │
│ (Bidirectional)               │                       │              │
├───────────────────────────────┼───────────────────────┼──────────────┤
│ dropout_4 (Dropout)           │ (None, 64)            │            0 │
├───────────────────────────────┼───────────────────────┼──────────────┤
│ output_layer (Dense)          │ (None, 5)             │          325 │
└───────────────────────────────┴───────────────────────┴──────────────┘
 Total params: 65,989 (257.77 KB)
 Trainable params: 65,989 (257.77 KB)
 Non-trainable params: 0 (0.00 B)

2025-09-14 12:26:12,362 - __main__ - INFO - Setting up training callbacks...
2025-09-14 12:26:12,363 - __main__ - INFO - === STARTING TRAINING PROCESS ===
2025-09-14 12:26:12,363 - __main__ - INFO - Device: CPU
2025-09-14 12:26:12,364 - __main__ - INFO - Batch size: 64
…
