…
2025-09-14 10:27:33,245 - __main__ - INFO - Validation samples: 99975
2025-09-14 10:27:33,548 - tensorflow - INFO - F1Score metric will be calculated manually during evaluation
2025-09-14 10:27:33,551 - __main__ - INFO - Model built successfully
2025-09-14 10:27:33,558 - __main__ - INFO - Model: "GRU_Model"
┏━━━━━━━━━━━━━━━━━━━━━━━━━━━━━━━━━━━━━━┳━━━━━━━━━━━━━━━━━━━━━━━━━━━━━┳━━━━━━━━━━━━━━━━━┓
┃ Layer (type)                         ┃ Output Shape                ┃         Param # ┃
┡━━━━━━━━━━━━━━━━━━━━━━━━━━━━━━━━━━━━━━╇━━━━━━━━━━━━━━━━━━━━━━━━━━━━━╇━━━━━━━━━━━━━━━━━┩
│ bidirectional_gru_1 (Bidirectional)  │ (None, 128, 64)             │           9,216 │
├──────────────────────────────────────┼─────────────────────────────┼─────────────────┤
│ dropout_1 (Dropout)                  │ (None, 128, 64)             │               0 │
├──────────────────────────────────────┼─────────────────────────────┼─────────────────┤
│ bidirectional_gru_2 (Bidirectional)  │ (None, 128, 64)             │          18,816 │
├──────────────────────────────────────┼─────────────────────────────┼─────────────────┤
│ dropout_2 (Dropout)                  │ (None, 128, 64)             │               0 │
├──────────────────────────────────────┼─────────────────────────────┼─────────────────┤
│ bidirectional_gru_3 (Bidirectional)  │ (None, 128, 64)             │          18,816 │
├──────────────────────────────────────┼─────────────────────────────┼─────────────────┤
│ dropout_3 (Dropout)                  │ (None, 128, 64)             │               0 │
├──────────────────────────────────────┼─────────────────────────────┼─────────────────┤
│ bidirectional_gru_4 (Bidirectional)  │ (None, 64)                  │          18,816 │
├──────────────────────────────────────┼─────────────────────────────┼─────────────────┤
│ dropout_4 (Dropout)                  │ (None, 64)                  │               0 │
├──────────────────────────────────────┼─────────────────────────────┼─────────────────┤
│ output_layer (Dense)                 │ (None, 5)                   │             325 │
└──────────────────────────────────────┴─────────────────────────────┴─────────────────┘
 Total params: 65,989 (257.77 KB)
 Trainable params: 65,989 (257.77 KB)
 Non-trainable params: 0 (0.00 B)

2025-09-14 10:27:33,558 - __main__ - INFO - Beginning training process...
2025-09-14 10:27:48,825 - __main__ - ERROR - Training pipeline failed: Graph execution error:

Detected at node LogicalAnd_1 defined at (most recent call last):
…
