…
2025-09-11 15:49:42,239 - __main__ - INFO - Starting LSTM model training...
2025-09-11 15:49:43,457 - __main__ - INFO - Training samples: 399949
2025-09-11 15:49:43,457 - __main__ - INFO - Validation samples: 99988
2025-09-11 15:49:43,620 - __main__ - INFO - Model built successfully
2025-09-11 15:49:43,626 - __main__ - INFO - Model: "LSTM_Classifier"
┏━━━━━━━━━━━━━━━━━━━━━━━━━━━━━━━━━┳━━━━━━━━━━━━━━━━━━━━━━━━┳━━━━━━━━━━━━━━━┓
┃ Layer (type)                    ┃ Output Shape           ┃       Param # ┃
┡━━━━━━━━━━━━━━━━━━━━━━━━━━━━━━━━━╇━━━━━━━━━━━━━━━━━━━━━━━━╇━━━━━━━━━━━━━━━┩
│ lstm_layer_1 (LSTM)             │ (None, 64, 16)         │         1,984 │
├─────────────────────────────────┼────────────────────────┼───────────────┤
│ dropout_1 (Dropout)             │ (None, 64, 16)         │             0 │
├─────────────────────────────────┼────────────────────────┼───────────────┤
│ layer_norm_1                    │ (None, 64, 16)         │            32 │
│ (LayerNormalization)            │                        │               │
├─────────────────────────────────┼────────────────────────┼───────────────┤
│ lstm_layer_2 (LSTM)             │ (None, 16)             │         2,112 │
├─────────────────────────────────┼────────────────────────┼───────────────┤
│ dropout_2 (Dropout)             │ (None, 16)             │             0 │
├─────────────────────────────────┼────────────────────────┼───────────────┤
│ layer_norm_2                    │ (None, 16)             │            32 │
│ (LayerNormalization)            │                        │               │
├─────────────────────────────────┼────────────────────────┼───────────────┤
│ classification_output (Dense)   │ (None, 5)              │            85 │
└─────────────────────────────────┴────────────────────────┴───────────────┘
 Total params: 4,245 (16.58 KB)
 Trainable params: 4,245 (16.58 KB)
 Non-trainable params: 0 (0.00 B)

2025-09-11 15:49:43,627 - __main__ - INFO - Beginning training process...
