…
2025-09-12 12:47:54,971 - __main__ - INFO - Starting LSTM model training...
2025-09-12 12:49:06,418 - __main__ - INFO - Training samples: 399949
2025-09-12 12:49:06,419 - __main__ - INFO - Validation samples: 99988
2025-09-12 12:49:06,632 - __main__ - INFO - Model built successfully
2025-09-12 12:49:06,639 - __main__ - INFO - Model: "LSTM_Classifier"
┏━━━━━━━━━━━━━━━━━━━━━━━━━━━━━━━━━━━━━━┳━━━━━━━━━━━━━━━━━━━━━━━━━━━━━┳━━━━━━━━━━━━━━━━━┓
┃ Layer (type)                         ┃ Output Shape                ┃         Param # ┃
┡━━━━━━━━━━━━━━━━━━━━━━━━━━━━━━━━━━━━━━╇━━━━━━━━━━━━━━━━━━━━━━━━━━━━━╇━━━━━━━━━━━━━━━━━┩
│ lstm_layer_1 (LSTM)                  │ (None, 64, 16)              │           1,984 │
├──────────────────────────────────────┼─────────────────────────────┼─────────────────┤
│ dropout_1 (Dropout)                  │ (None, 64, 16)              │               0 │
├──────────────────────────────────────┼─────────────────────────────┼─────────────────┤
│ layer_norm_1 (LayerNormalization)    │ (None, 64, 16)              │              32 │
├──────────────────────────────────────┼─────────────────────────────┼─────────────────┤
│ lstm_layer_2 (LSTM)                  │ (None, 64, 16)              │           2,112 │
├──────────────────────────────────────┼─────────────────────────────┼─────────────────┤
│ dropout_2 (Dropout)                  │ (None, 64, 16)              │               0 │
├──────────────────────────────────────┼─────────────────────────────┼─────────────────┤
│ layer_norm_2 (LayerNormalization)    │ (None, 64, 16)              │              32 │
├──────────────────────────────────────┼─────────────────────────────┼─────────────────┤
│ lstm_layer_3 (LSTM)                  │ (None, 16)                  │           2,112 │
├──────────────────────────────────────┼─────────────────────────────┼─────────────────┤
│ dropout_3 (Dropout)                  │ (None, 16)                  │               0 │
├──────────────────────────────────────┼─────────────────────────────┼─────────────────┤
│ layer_norm_3 (LayerNormalization)    │ (None, 16)                  │              32 │
├──────────────────────────────────────┼─────────────────────────────┼─────────────────┤
│ classification_output (Dense)        │ (None, 5)                   │              85 │
└──────────────────────────────────────┴─────────────────────────────┴─────────────────┘
 Total params: 6,389 (24.96 KB)
 Trainable params: 6,389 (24.96 KB)
 Non-trainable params: 0 (0.00 B)

2025-09-12 12:49:06,640 - __main__ - INFO - Beginning training process...
Epoch 1/15
24997/24997 ━━━━━━━━━━━━━━━━━━━━ 0s 54ms/step - accuracy: 0.9504 - loss: 0.1370    
Epoch 1: val_loss improved from None to 0.06844, saving model to models/saved_Models/experiment3.keras
…
